{"format": "torch", "nodes": [{"name": "multi_task", "id": 140265049156304, "class_name": "MKDTI(\n  (entity_embedding): EmbeddingLayer(\n    (embedding): Embedding(97238, 128)\n  )\n  (rgcn_layers): ModuleList(\n    (0): EmbeddingLayer(\n      (embedding): Embedding(97238, 128)\n    )\n    (1): RelGraphConv(\n      (dropout): Dropout(p=0.5, inplace=False)\n    )\n  )\n  (shared_units): ModuleList(\n    (0): AttentionUnit(\n      (MLP_dti): Linear(in_features=256, out_features=128, bias=True)\n      (MLP_cpi): Linear(in_features=256, out_features=128, bias=True)\n    )\n  )\n  (drug_gcn): ModuleList(\n    (0): GraphConv(in=78, out=128, normalization=both, activation=None)\n    (1): GraphConv(in=128, out=128, normalization=both, activation=None)\n  )\n  (drug_output_layer): MLPNodeReadout(\n    (in_project): Linear(in_features=128, out_features=128, bias=True)\n    (activation): ReLU()\n    (out_project): Linear(in_features=128, out_features=128, bias=True)\n  )\n  (compound_fc_layers): ModuleList(\n    (0): Linear(in_features=128, out_features=128, bias=True)\n    (1): Linear(in_features=128, out_features=128, bias=True)\n  )\n  (embed_protein): Embedding(8000, 128)\n  (target_cnn): ModuleList(\n    (0): Conv1d(128, 96, kernel_size=(3,), stride=(1,), padding=(1,))\n    (1): Conv1d(96, 128, kernel_size=(3,), stride=(1,), padding=(1,))\n    (2): Conv1d(128, 128, kernel_size=(3,), stride=(1,), padding=(1,))\n  )\n  (fc_layers): ModuleList(\n    (0): Linear(in_features=256, out_features=256, bias=True)\n    (1): ReLU()\n    (2): Dropout(p=0.5, inplace=False)\n    (3): Linear(in_features=256, out_features=256, bias=True)\n    (4): ReLU()\n    (5): Dropout(p=0.5, inplace=False)\n    (6): Linear(in_features=256, out_features=1, bias=True)\n  )\n  (dti_fc_layers): ModuleList(\n    (0): Linear(in_features=256, out_features=256, bias=True)\n    (1): ReLU()\n    (2): Dropout(p=0.5, inplace=False)\n    (3): Linear(in_features=256, out_features=1, bias=True)\n  )\n)", "parameters": [["w_relation", [107, 128]], ["entity_embedding.embedding.weight", [97238, 128]], ["rgcn_layers.1.weight", [107, 4096]], ["rgcn_layers.1.h_bias", [128]], ["rgcn_layers.1.loop_weight", [128, 128]], ["shared_units.0.W", [128, 1]], ["shared_units.0.W_cpi", [128, 1]], ["shared_units.0.W_dti", [128, 1]], ["shared_units.0.W_a", [128, 2]
…
